VarroaModel.pth (torch, 317896 bytes, 24 tensors)

conv1.weight f4 [32, 1, 3, 3]
00000000: 8de7 51be 29e4 42be f9f6 1bbe ae27 5fbe
00000010: 57c2 c43e 8195 70be 1996 5abe 7638 0abe
00000020: b52e 5fbe 8718 2dbd 666e a53e 77b3 813e
00000030: ff26 4a3e 0d52 7c3e 6873 e9bb d7d0 54be
00000040: 9bda 843e 4b21 1b3d 450a 2a3e a401 93be
00000050: 759f d23d 6a07 7abc 72d5 31be 88f5 bb3c
00000060: 4dc2 b13e 465d ab3e c8fa 3b3e 29ab 1cbe
00000070: 6ed8 a53e c56d a1be d38e 0b3e 4da9 5dbe
00000080: 9d55 a8bd 4489 6f3d 92c4 0ebe bd31 b3be
00000090: ec9e 393e 64b2 71be a32a 023c f4a7 73bd
000000a0: 2d36 a9be db13 c0bd bd6f 8d3e b179 c0be
000000b0: 2254 34be 6d29 143e aed4 9cbe 4ec9 96be
000000c0: c5df f3bc 8451 3b3e bdc1 a4bd 5923 5cbe
000000d0: b1a5 ec3d 624d 103e fca5 6cbe 49d3 c63e
000000e0: c183 b53c 1505 adbd f65c 37be 8a8b 19bd
000000f0: ae92 653c a4dd 99be b93e c3bc 4ea5 79bd
00000100: 0b2d b63d ab00 8abd b6d4 a43e 5e57 eabd
00000110: 2cc2 0d3e 5651 4bbe cf12 0e3d a65a 5bbe
00000120: d8dd 28be 7f9d fdbd ef76 863d 4cc8 4b3e
00000130: c232 9c3e e359 c1bd ae97 9c3c 6875 45be
00000140: 3c0b 31bd 71c7 54be 3bea 76bd f0bb 2e3e
00000150: 52cd 99be bc13 283e faf9 b83b 8402 c3bd
00000160: 3e00 b03c 02d5 81bd 1ceb 6b3e 654a ea3c
00000170: ed28 99be 85e0 db3d 056c 8dbd 73eb 42be
00000180: 0cea 813e a48e 5cbe c572 d63d 9b33 a13d
00000190: 5f1a 2dbe 3140 a83d b11e 2d3e 5dc8 8c3e
000001a0: 3d77 f4bd cfff 80be 9257 943e a7eb adbd
000001b0: 5f35 9e3e 8eb8 1e3d 256f c43d c186 1bbe
000001c0: 535e 86be 2697 6abe 72e8 02be 8407 173e
000001d0: a243 543e c928 57bd 4b5a 2dbb 265c 8cbe
000001e0: e3f4 78be d925 583e cf6e 95bd f185 edbd
000001f0: 93c5 b83e 8d09 563e 8f47 7c3e e3c4 f0bd
00000200: ca21 1ebd 078a 2d3e d97f af3e d712 67be
00000210: 52d5 80be faed c13d aed7 5cbe 56cd f43d
00000220: d807 583e 082b 913c db51 8ebe 7a8e 303e
00000230: 5068 3abe a2aa aebd 59db 923d 6d79 6ebe
00000240: 26c3 013e c0d0 aa3d d230 2abe df37 d1bd
00000250: 434e b33e 5b56 f4bd 1f3a 8cbd 5624 f13d
00000260: 63b8 5dbe 5404 cc3d ff08 873e 46d2 8c3e
00000270: 879a 04be 121d aabb 140d 49bd 9f89 13be
00000280: 75b7 75be 9629 0fbe b7f8 223e 4461 a53d
00000290: 523a 223d 6a21 4ebe a88b ba3e 1e41 a0bd
000002a0: 591f 45bd 4b33 be3e e213 44be 58af febd
000002b0: 9fa8 61be 8480 97be 0219 ecbc 7a8e 90be
000002c0: d8c2 8b3e 5394 193e 409b a4be 7681 803e
000002d0: d5c9 cebc b487 843e f413 82be 71a9 0a3e
000002e0: 6c0b b03e d904 983e 0cbd 35be 0d54 fbbd
000002f0: 04ae 75bb c98c 2cbe bcac 183e 23ad 2bbe
00000300: 2d9f dd3d 8b84 7ebe 3ae4 cfbd 3915 1abe
00000310: 5fad e13e a558 013e 720c 173e a484 3dbe
00000320: 5bb3 6bbd 158b aabe 7e7b 603e 4d32 803d
00000330: ea2f 713e b75a aabe 2706 6a3e ff61 3bbc
00000340: daf4 853e 16b5 e3bc b5c8 553e 3abc 623d
00000350: afe9 8f3e ccca ff3d 3d54 e9bd 8087 ca3e
00000360: 5c89 6e3e dcb8 153d daf3 1a3e d5a5 573e
00000370: f6c7 4c3e 9980 81be 915a ecbd a833 3abe
00000380: ec6f 8e3d 7b81 c03d 6ecd 7bbe 4905 363e
00000390: 36a5 41be a5bb 623e d074 cfbc 0308 b23e
000003a0: 42fd 2d3d 6e38 28be f48b 9e3c 6b2c cd3d
000003b0: 5225 98be 2d8e 4e3e bf1f a03e f169 123e
000003c0: a46c 71be cbb9 85be 2cb8 a3bd 3691 42bd
000003d0: 4c40 f83d c2d9 06be e3f0 08be d7c7 2fbd
000003e0: 0e1d 8dbd fa3c 76be e24e a53d a19b dd3e
000003f0: ec61 12be de15 a23e 6b53 853e 2d5b 08be
-0.20498486 -0.19032349 -0.15230931 -0.2179248 0.3842952 -0.23494531 -0.2134632 -0.134981
-0.21795161 -0.04225972 0.3231079 0.25332233 0.19741438 0.24640675 -0.007124353 -0.20782791
0.25948033 0.037873548 0.1660548 -0.2871219 0.1028432 -0.015260557 -0.17366579 0.022944227
0.34718552 0.334696 0.18357384 -0.15299667 0.32391685 -0.3152906 0.13628702 -0.21646614
-0.082194544 0.058480516 -0.13942173 -0.34998885 0.1812703 -0.23603207 0.007944736 -0.059486344
-0.33049145 -0.09378787 0.27624312 -0.37592843 -0.17610219 0.14468928 -0.30631012 -0.29450458
-0.029769788 0.18292814 -0.08044765 -0.21497859 0.11555041 0.14092019 -0.23110193 0.38833073
0.022157552 -0.08448235 -0.17906556 -0.03748659 0.014012022 -0.3005191 -0.02383362 -0.060948662
0.0889531 -0.06738409 0.32193536 -0.11442445 0.13843602 -0.19855246 0.034685906 -0.21421298
-0.16490877 -0.123835556 0.065656535 0.19900626 0.30507475 -0.09440973 0.019115295 -0.19283068
-0.043223605 -0.20779206 -0.060281973 0.1706388 -0.3003946 0.16413778 0.005645034 -0.09521964
0.02148449 -0.06339456 0.23038906 0.028599927 -0.29914036 0.10736183 -0.06905369 -0.19035129
0.25373876 -0.21538788 0.10471109 0.07871171 -0.16904591 0.082153685 0.16906239 0.27496615
-0.119368054 -0.25195166 0.2897306 -0.08492213 0.30900094 0.038750224 0.09591512 -0.15188123
-0.2624384 -0.22909221 -0.12783983 0.1474896 0.20728925 -0.05252913 -0.0026451524 -0.27414054
-0.24312167 0.21108188 -0.07296526 -0.11597813 0.36088237 0.20902081 0.24636672 -0.11756303
-0.038606443 0.16947185 0.34277228 -0.2256578 -0.2516275 0.094692186 -0.2156665 0.11953227
0.21096742 0.017720714 -0.27796826 0.1724185 -0.18203855 -0.085286394 0.071707435 -0.23288508
0.126721 0.08340597 -0.16620186 -0.10215735 0.35020646 -0.119305335 -0.06847023 0.11774509
-0.21652369 0.09961763 0.2637405 0.27504176 -0.12949573 -0.0051914537 -0.049084738 -0.14407967
-0.23995765 -0.13980708 0.1591519 0.080751926 0.0396064 -0.20129934 0.36434674 -0.0782492
-0.0481256 0.37148508 -0.1914821 -0.12435788 -0.2203698 -0.29590237 -0.028820518 -0.282337
0.2729709 0.14997987 -0.32149696 0.2509877 -0.025242725 0.25884783 -0.25405848 0.135412
0.34383714 0.29691198 -0.17747897 -0.12271891 -0.0037487755 -0.1685058 0.14909643 -0.16765265
0.10821376 -0.24855249 -0.10150953 -0.15047158 0.44077584 0.12631471 0.14750841 -0.1850763
-0.057544094 -0.33309236 0.21922109 0.06259594 0.23553434 -0.33272335 0.2285391 -0.011436938
0.2616337 -0.02779631 0.20877345 0.055355288 0.28107974 0.12489852 -0.1139302 0.39556503
0.23294586 0.03655325 0.15132084 0.21059354 0.19998154 -0.25293425 -0.11540712 -0.18183768
0.06954941 0.093996964 -0.24590084 0.17775454 -0.18910679 0.22141893 -0.025324255 0.34771737
0.042477854 -0.16427776 0.019353844 0.10018238 -0.29715973 0.20171423 0.3127422 0.14298226
-0.235766 -0.2611831 -0.07994112 -0.047501765 0.12121639 -0.13169006 -0.13373141 -0.04291519
-0.06890307 -0.24046698 0.08071686 0.43282798 -0.14295167 0.31657308 0.26040205 -0.13316031

conv1.bias f4 [32]
00000000: 4715 e8bd feab dfbb e25c 67be f324 9e3e
00000010: d254 8cbd 0a24 813e 82ab 253e 31b5 073e
00000020: 6d75 54be d366 60be 66fd a23e edf5 1fbe
00000030: e55a 58be cca4 833e b612 d43d 2c40 953e
00000040: 6dc1 26be e03e c73e e43f 373d 5872 053d
00000050: 568c d4bd 21d0 86bc 35ba 813e 5f75 77be
00000060: 1489 87be 6bf2 34bd 8b0f 893c bff7 8dbd
00000070: 551c d73d 0635 8dbd 7f12 f63d e252 163e
-0.11332183 -0.006825923 -0.22594026 0.30887565 -0.06852116 0.25222808 0.16178706 0.13252713
-0.2074792 -0.21914224 0.31833953 -0.15621157 -0.21128424 0.25711668 0.10355131 0.29150522
-0.16284724 0.38915157 0.044738665 0.03257975 -0.103783295 -0.016456665 0.25337377 -0.24165867
-0.2647177 -0.0441765 0.016731044 -0.069320194 0.10503451 -0.06894879 0.120152466 0.14680055

conv2.weight f4 [64, 32, 3, 3]
00000000: 4d0f 143d 33fc 84bd 8fc3 463d 5e43 243a
00000010: d575 843c ccb3 9a3d 3721 99bc 7c45 3c3d
00000020: 0bc9 173c 11e3 673d 4ec6 ef3c e84c 493d
00000030: 56ed a83c 9652 6dbd e78b 72bd a102 253d
00000040: fb21 fabc 9a7f b4bc 859e 503b 137a a4bc
00000050: 4785 c3bd d9e7 893d 3ee1 acbd 121c 8f3b
00000060: 094c 98bc 3cf2 d43a e331 05be 30af fe3c
00000070: 5330 a1bc 38f9 31bc 2e7c 793d e8ae f63b
00000080: ad94 d6ba f923 8e3b 08ae 093d f1d5 863c
00000090: 3857 073d 38a3 c53c 4eeb 06bd 2a02 a03b
000000a0: 5eaf 94bc 42d6 cbbb 09d0 14bc 75e5 813d
000000b0: b5fb dc3c cb1c a2bd 680a d4bd 2daf ff3c
000000c0: 77da 0ebd ed95 b43c 61dc 313d 57f9 07bd
000000d0: 5c31 27bc a7d7 203c 77ba 923a e445 82bc
000000e0: 4943 ad3d ad24 893d 6950 48bc 43f1 cebc
000000f0: cf22 5d3d 4fdb 583b 14e4 6e3d b7d3 2dbd
00000100: a114 c53b 25ea 683d 725e 97bd b2a2 f1bc
00000110: 5078 8b3d 9f93 1bbd 1fb5 513d 0d78 dd3d
00000120: 6f01 103b 9133 7cbd 46e6 c5bc 5d29 9dbd
00000130: 745c 763a 39aa 10bd 0195 ecbd b0f4 093e
00000140: 73cf 423e 12af 263d 0ff7 003d 3adb a6bb
00000150: 28d6 c73c 8998 4a3d 98fd ccbb 43c7 d2bc
00000160: fc0c fe3c 6092 f13b 1caa b6bb b30c f8bc
00000170: 6a7f f33d 5f4c 1ebb 62d0 163d 473f ae3d
00000180: 8b7a cdbc 7031 413c a299 b93d 07fa 1a3d
00000190: 40fb 20bd f83e 043d 3b59 0bbb 5f31 333c
000001a0: 3046 c1bd 241f aebd 68b3 bf3c f2ff cabd
000001b0: 5e15 69bc d508 96bd e3e1 613c df7f f2bc
000001c0: 7135 aabd 040f 25bd 30e3 0ebe dd32 013c
000001d0: 82c3 983d cbd7 36bd fb6b 8bbd e4c2 f33c
000001e0: d8e1 a6bd 98d1 013c 657f 973c 0988 7cbd
000001f0: 78dc a6bc 241a 9bbb f6f0 d5bc 5bb8 34bc
00000200: b975 983c 69d9 80bd 5103 4e3d 848b 1b3c
00000210: a5ce f3bc d578 a93d 5cc5 cb3d b069 823d
00000220: df62 b63c 1c4f 4439 371a 0ebd 4820 483d
00000230: 60b8 89bd 2aa6 08bd 2327 89bc 46d6 dd3c
00000240: edd3 36bc 12fa bc3b 5f04 023c 3179 533d
00000250: 85bb d03d 4c29 a63c a018 6ab6 797b edbb
00000260: a821 4a3d 86c7 e7bc f12e 5b3d df0d b23c
00000270: b21b 3fbc a020 033c 5506 45bb 5416 80bd
00000280: 99c1 18bc ba43 77bc c55d 203d c6c3 233d
00000290: f3b0 cb3d 33e2 ac3c 0f50 9dbb ca3b 51bd
000002a0: c9a6 88bd 98a9 46bc 5686 0abd 3bf0 96bc
000002b0: c323 a6bc 938e 17bd b571 0e3c 8b38 083d
000002c0: 3833 8e3c 6c6d 8bbc 2779 503d aec2 6b3c
000002d0: b409 643d e1f7 ad3c 3239 8e3d 29a0 e0b9
000002e0: a2ca abbc 584b 44bd 091f a53d e9cd 63bd
000002f0: e7f9 8abd cc55 3dbd f356 9cbd 1cfb a9bc
00000300: 250b 91bd 1aa7 9c3d 0dcf 38bc f983 c1bd
00000310: 77a8 dd3d 9045 253d 3346 a0bd 9a5a 9ebd
00000320: 1c65 b93d 75e8 5f3b 0742 953d c11e b0bd
00000330: 7cb0 c3bd 1f7b 143d accb b53d 9ca7 6f3d
00000340: de02 9bbc 1556 a4bb 9c6a 2e3d 9713 bfbd
00000350: 7543 b0bd 81cd fe3c d08f 06be 9249 42bd
00000360: 9f85 d3bc cd89 a4b9 57ff ac3d af6e 0a3d
00000370: 2ffc 81bc b33c 72bd 092e a33d a5c2 6a3c
00000380: 58dc ccbd 92b4 8ebc 4edf a93d b2df af3c
00000390: 8743 a9bb dfca d33c 8457 c8bc c003 b6bb
000003a0: 45c8 bfbd 2433 7b3b 927f 383d 7e8a 71bd
000003b0: 3532 01bd 9af8 07bd 8c19 c53c a30f 3a3d
000003c0: 101b 8a3b 2ab9 013e 4217 b63d 09f0 9cbd
000003d0: 6e53 96bd 5f3c 013d f3e7 abbd 0d24 f73c
000003e0: 8f42 c6bd cd62 b0bd 7e58 cebb a2bd 4a3c
000003f0: f9a1 8a3d de44 2a3c 94e3 473d 1a50 6d3d
0.036147404 -0.06493416 0.048526343 0.0006266142 0.016169468 0.07553825 -0.018692596 0.045964703
0.009264241 0.05661303 0.029269364 0.04914561 0.020620983 -0.05794009 -0.059215453 0.04028571
-0.030533781 -0.022033501 0.0031832766 -0.02007774 -0.09546905 0.067336746 -0.08441399 0.00436736
-0.018590944 0.0016246508 -0.13007312 0.031089395 -0.019676363 -0.010862641 0.060909443 0.0075281747
-0.0016371213 0.0043377844 0.033613235 0.016459437 0.033042163 0.02412568 -0.032939248 0.0048830705
-0.018150028 -0.00622061 -0.009082803 0.063425936 0.026975492 -0.07915648 -0.10353547 0.03121146
-0.034876313 0.022044146 0.04342306 -0.033196773 -0.010204639 0.0098170405 0.0011194487 -0.015902467
0.08460099 0.066964485 -0.0122262025 -0.025261527 0.053988274 0.0033089702 0.05832298 -0.042438235
0.006014422 0.056863923 -0.07391061 -0.029496524 0.06810057 -0.03798258 0.05119812 0.108139135
0.002197351 -0.061572615 -0.024157654 -0.07673905 0.0009397932 -0.035318587 -0.11551858 0.13472247
0.19024448 0.040694304 0.031485613 -0.005092052 0.02439411 0.049461875 -0.0062558167 -0.025729781
0.03101205 0.0073721856 -0.005574478 -0.030279493 0.11889537 -0.0024154407 0.036819823 0.08508163
-0.025082847 0.011791572 0.09062506 0.0378361 -0.03930211 0.032286614 -0.0021262902 0.010937064
-0.09437215 -0.08502033 0.023400977 -0.09912099 -0.014226286 -0.07325903 0.013786766 -0.02960199
-0.083109744 -0.040297523 -0.13953853 0.007885662 0.07459165 -0.04463939 -0.06807705 0.029756017
-0.08148545 0.007923506 0.018493364 -0.06165317 -0.0203688 -0.004733341 -0.026115876 -0.011030282
0.018610822 -0.06291468 0.05029613 0.009493712 -0.029761622 0.08275 0.09949753 0.063678145
0.022263942 0.00018721487 -0.03469297 0.04885891 -0.0672462 -0.03336159 -0.016742295 0.027079713
-0.0111589255 0.0057671154 0.007935612 0.05162925 0.101920165 0.020283364 -3.488305e-06 -0.007247385
0.049348503 -0.028293382 0.053511564 0.02173513 -0.011664318 0.008003384 -0.0030063589 -0.06254259
-0.009323501 -0.015091831 0.039151926 0.039981626 0.0994586 0.021103954 -0.0048008035 -0.05108241
-0.06672437 -0.012125395 -0.03381952 -0.018425098 -0.020280724 -0.037001204 0.008694102 0.03325705
0.017358407 -0.01701995 0.05089679 0.014389677 0.055673316 0.021236362 0.06944503 -0.00042843938
-0.020970646 -0.047923416 0.0806256 -0.055616293 -0.06785946 -0.0462244 -0.07633772 -0.020749621
-0.07082204 0.076490596 -0.0112798335 -0.09449 0.10823148 0.040349543 -0.078258894 -0.077321246
0.09052488 0.0034165655 0.07287984 -0.08599616 -0.09555146 0.03625023 0.08876738 0.058509454
-0.018922266 -0.0050151446 0.04258214 -0.09329908 -0.086066164 0.031103851 -0.13140798 -0.047433443
-0.025820551 -0.00031383187 0.0844714 0.033796962 -0.01586732 -0.05913992 0.07967765 0.014328633
-0.10002965 -0.017420087 0.08294545 0.02146897 -0.0051655206 0.025853572 -0.024455793 -0.0055546463
-0.0936437 0.0038330043 0.045043536 -0.058969967 -0.03154202 -0.03319607 0.024060033 0.04542507
0.004214652 0.1266829 0.08891155 -0.076629706 -0.07340132 0.031551715 -0.0839385 0.030168558
-0.09680664 -0.08612595 -0.00629717 0.012374314 0.06769175 0.010392396 0.04880102 0.05793772

conv2.bias f4 [64]
00000000: ff99 25bc f6ad 43bd f979 5c3d 2c19 e5bc
00000010: a28f a1bc 9ceb 383d 0b12 833c 5f56 a83c
00000020: 7407 1f3d f34f ca3c 1246 6f3d 0eb6 83bb
00000030: 55c5 033d 7394 bfbc 58b9 31bd 27cd 4dbd
00000040: ff3a 603d 9024 21bd c15f 74bc 49e3 6cbd
00000050: b778 97bc 331f 18bd 6d43 613d 979d 60bd
00000060: 713c 853c 067f 583d 9c26 1f3d 67ac 133a
00000070: b130 eebc 3488 11bd e067 36bb 28ba 8abd
00000080: 040c d53c f948 afbb 167d 493a 1154 7e3c
00000090: ea90 373d b3d6 dc3c 0e08 1ebd 78f2 ccbc
000000a0: 8528 883c fa57 04bd dad9 3f3d 7772 08bd
000000b0: c08d b63c d0bb 0f3d 2fad 30bd da1e 9b3c
000000c0: f43f 883b d291 cdbc 0fb7 2d3d 779d 48bc
000000d0: 86ce 4cbd 5a64 dc38 1e1e 2abd 7bd2 1cbc
000000e0: 824b 03bb f601 4e3d 696b 81bd 1c9b 9b3c
000000f0: eac9 f1bc 147e 4bbd 7467 cf3c ad58 023d
-0.010107516 -0.047773324 0.05382726 -0.027966104 -0.01972181 0.04514657 0.015999814 0.020548997
0.038825467 0.024696326 0.058416434 -0.0040195053 0.032170612 -0.023386216 -0.04338965 -0.050244477
0.054743763 -0.03934151 -0.014915408 -0.057833944 -0.018490179 -0.03713913 0.054995943 -0.05483779
0.016264172 0.052855514 0.03885518 0.0005633295 -0.029075952 -0.035530284 -0.002783291 -0.06773788
0.026006706 -0.005349275 0.0007686181 0.015522973 0.044815935 0.026957845 -0.0385819 -0.025017962
0.016620884 -0.032310463 0.04683862 -0.033312287 0.022284389 0.03509122 -0.04313391 0.01893561
0.0041580144 -0.025093947 0.042410906 -0.012244574 -0.050001644 0.000105091094 -0.04153263 -0.009571667
-0.002003402 0.05029484 -0.06319315 0.01899486 -0.029515225 -0.049680784 0.025317885 0.03182285

conv3.weight f4 [128, 64, 2, 2]
00000000: 30ef a1bc 4776 19bd 4e8b 143d f31a edbc
00000010: de1b f5bc 47de fdbc 1f53 e43c dfc0 893d
00000020: 2ca9 86bd 77c8 bcbd 6b07 e3bc 3f14 4abe
00000030: 569a b8bb 4bc7 0ebd dbe4 c4bd 536e 81bd
00000040: da40 a9bd 175d af3c 9bee 6fbd d6b3 25bd
00000050: 4ae6 8fbc ce5b 7b3d 86dd 383c e9b2 f33d
00000060: a289 0f3e 8b05 50bd dc97 12bb acc6 563c
00000070: db53 dc3c de3c 7fbc 4d5a 31bc 7f92 3a3d
00000080: 96b9 e33c 745d d8bc 9b77 6d3b 42cb 03bd
00000090: 9d81 f6bc f8c1 f337 b2bc 9abc b780 f83c
000000a0: 1f0e 93bd dae2 593a ad06 8bbd 719f 283d
000000b0: b630 2bbd 547f 9cbc 511a aa3c fa52 8abd
000000c0: caac 383c 408d 61bd 6d3d 8b3d 788f 6bbc
000000d0: 77ff 593d 52fe 943b d9c3 153d 6f1a d93d
000000e0: ecc4 d9bb 5fab 13bd 33dd 283d 5048 903c
000000f0: b7b4 76bd 78e5 8c3c c687 b1bc d1cb 54bd
00000100: ea07 2ebc db24 65bd 80a1 1dbd 04e9 313d
00000110: 6c82 4b3d 91cc 59bd 5318 1d3d 5c2b c2bc
00000120: cb64 4d3c 526b d039 64d2 8cbd c54d 82bd
00000130: 5c73 af3c c3f9 b23c 91ec d13d 18b9 993d
00000140: de32 5b3c a5a1 5b3d 71e1 0fbd 69c5 78bd
00000150: 123f 44bd 2d29 933c 5724 53bd 82d6 68bd
00000160: 3923 513b 9db0 c73d c551 4dbb bd2e c23d
00000170: e85f aabc c023 63bd 4f84 423a 5811 67bd
00000180: 2f53 743c ec75 10be 16c3 4fbd b4ea 4abc
00000190: 3929 8abd 6f90 63bd 0a3a 00bc 62a1 88bb
000001a0: 4806 6cbd 1933 27be 377b 343c 0ef9 9bbd
000001b0: 92b0 193d 834b 903d feba 813d e021 833d
000001c0: cd70 4d3d 1e8b 453d 0509 a6bd 2021 70bd
000001d0: 41ec 5a3d 7b57 82bd 9bac 3b3c e457 eabd
000001e0: 92a3 d33c 5192 abbc a3c0 ddbd a454 bf3c
000001f0: 11ef d1bc 1876 febd 5182 863d b1bf 1dbc
00000200: e7d0 203c eb4f 5ebb 0ccf 713d 6198 75bd
00000210: 8701 5b3d f718 a5bd cb2a a53c 5b04 e3bd
00000220: cc6c 86bd e376 5f3c 9bd8 8abd db8a 98bd
00000230: 3b75 b1bc 9e9a f4bd 8978 263c a996 1cbc
00000240: fb48 4c3b 4cc6 473d 9870 98bd 4cbc ef3a
00000250: ff18 30bd 212c 083d 6084 8f3d 63df debd
00000260: 2eeb 8e3c bd2d 22bd 718f ecbc c7ee d53b
00000270: e135 39bc 53a1 563d e106 82bd e3f2 45bd
00000280: d625 a13c d84a c03d 613d 06bd 7bec c2bd
00000290: c1ae 7cbb d925 01bd f8dd ac3b 4646 9abd
000002a0: 0117 5fbd b147 fbbb 24da 7cbc 9a7f 2cbd
000002b0: 28bc e8bb c83e 86bd a4d3 a8bc 232d b53c
000002c0: 4823 4a3d e013 71bd f026 093d 8f39 913d
000002d0: ef43 e63a 3c9c 0dbd ad52 cfbd 88cf 233d
000002e0: 57ab 403b 4d35 14bd 465a b2bd a027 83bd
000002f0: 5257 eb3b f3f2 34bd 0fc8 74bd a797 9cbb
00000300: d940 3bbd 1ebf 46bc e9a1 acbc d05e 1f38
00000310: 2b8d 95bc 7ec4 f4bb 26d0 573b ad04 923d
00000320: 459e 5bbd feb6 85bd 23d0 2e3b 2639 f8bc
00000330: 67d0 84bd 5a5b a6bd 8aa3 6abd 63f3 753d
00000340: 070b 68bd d999 93bd 6bb2 b23c d5d6 dfbc
00000350: c88d 88bd 86a8 afbd 2600 57bd c899 5bbd
00000360: 3634 2c3d 1097 d43b af9e cc3d b247 f63d
00000370: bb0c 84bd 8626 9c3c 7dab e2bd a700 ebbd
00000380: fcf5 3e3c 029f f3bd 2561 79bd ea14 6fbd
00000390: 8fee 7dbc 4adb 5ebd 123c 95bd 0afc 16bd
000003a0: 7b8f b13c 732d b3bc e8c2 09bd 7e12 8d3c
000003b0: 9091 11bd 9a97 16bd 43f9 d6bb 4ddb 06bd
000003c0: 7fa3 473d 2adc a2bc ae31 68ba b24d 90bc
000003d0: 1bfd 2f3c e2cf 80bd 92fb 01bd 34c6 a6bc
000003e0: d2a8 7fbd 2812 b1bd 4c2d 1bbd 402f 0fbd
000003f0: dc73 6ebd d149 0abd 45f0 3dbd 3930 cdbc
-0.019767374 -0.037466314 0.036265664 -0.028943514 -0.029920515 -0.03098978 0.027871666 0.0672624
-0.06575236 -0.09217923 -0.027713498 -0.19734286 -0.0056336327 -0.03485803 -0.09613963 -0.06319871
-0.082643226 0.021406693 -0.05857716 -0.040454708 -0.017565865 0.06136685 0.011283284 0.11899359
0.14017347 -0.050786536 -0.0022368347 0.0131088905 0.026895454 -0.015578477 -0.010824752 0.045549866
0.027798455 -0.02641175 0.003623462 -0.032176264 -0.030091101 2.9058181e-05 -0.018888805 0.030334814
-0.07180428 0.00083116966 -0.06788383 0.04116768 -0.0417945 -0.019103684 0.020764502 -0.06754108
0.011271665 -0.055066347 0.067988254 -0.014377467 0.053222146 0.004546919 0.036563728 0.10600745
-0.0066457894 -0.036052104 0.041226577 0.017612606 -0.060230937 0.017199263 -0.021671187 -0.051952187
-0.010622004 -0.05594335 -0.038484097 0.04343511 0.049684927 -0.053173605 0.038353276 -0.023702316
0.012536238 0.0003975281 -0.06876066 -0.063624896 0.021417312 0.021847611 0.102501996 0.07506007
0.013378827 0.053620953 -0.035127107 -0.06073514 -0.04791171 0.01796397 -0.05154833 -0.056845196
0.0031911863 0.09750483 -0.0031329256 0.09481571 -0.020797685 -0.055454016 0.0007420228 -0.056413025
0.014912411 -0.14107484 -0.050723158 -0.012385059 -0.06746144 -0.055557664 -0.007826338 -0.004169629
-0.057623178 -0.16328086 0.011015705 -0.07615863 0.037521906 0.07045653 0.06334494 0.064029455
0.050156403 0.048228376 -0.08107189 -0.05862534 0.053447966 -0.06364342 0.011454727 -0.11442545
0.025834832 -0.020943793 -0.10827758 0.02335579 -0.025626691 -0.12424868 0.06567825 -0.009628222
0.009815431 -0.0033922147 0.059035346 -0.059959773 0.053468253 -0.08061402 0.020162007 -0.11084815
-0.0656372 0.013639185 -0.067795955 -0.074483596 -0.021662345 -0.119435534 0.010160574 -0.009557405
0.003117143 0.048773095 -0.074433506 0.001829037 -0.042992588 0.03324521 0.070076704 -0.108824514
0.017446127 -0.0395944 -0.028876992 0.0065287086 -0.01130435 0.052399945 -0.06348968 -0.048327338
0.019671362 0.09389275 -0.03277338 -0.09517761 -0.003855631 -0.031530235 0.005275484 -0.07532935
-0.054465298 -0.0076684584 -0.015432868 -0.042113878 -0.007102508 -0.06554943 -0.02060873 0.02211625
0.049350053 -0.058856845 0.0334844 0.070910566 0.0017567853 -0.034572825 -0.10123191 0.03999284
0.0029399002 -0.036183644 -0.087086245 -0.06404042 0.0071820403 -0.044177007 -0.059761103 -0.0047788206
-0.04571614 -0.012130527 -0.021073299 3.7996855e-05 -0.01825579 -0.0074697128 0.0032930463 0.07129798
-0.053617734 -0.065290436 0.0026674352 -0.030300688 -0.06485062 -0.08122893 -0.05728487 0.060046565
-0.05665114 -0.072070785 0.021813592 -0.02732412 -0.066676676 -0.08577065 -0.052490376 -0.053613454
0.04204198 0.0064877346 0.09991204 0.120253935 -0.06447741 0.019061338 -0.11067865 -0.11474734
0.011655327 -0.11895563 -0.06088366 -0.058369555 -0.015498771 -0.05440835 -0.07286848 -0.036861457
0.021674862 -0.021872258 -0.033633143 0.017220732 -0.03553921 -0.036765672 -0.006560476 -0.032923985
0.048739906 -0.019880373 -0.00088575005 -0.017615173 0.010741497 -0.062896505 -0.031734057 -0.020358182
-0.06241686 -0.08646041 -0.037884995 -0.03495717 -0.05821596 -0.033761803 -0.046371717 -0.025047408

conv3.bias f4 [128]
00000000: 2aa4 363d ba49 4cbd 0775 3cbd ea82 313d
00000010: bc83 e03b 0d71 523d 373a f3bc 8514 e93b
00000020: bdd8 46bd 998f 1cbd 4226 71bd 0da2 40bd
00000030: 0183 153d c8c1 043d 9a37 ed3c 96e2 2c3d
00000040: c31a 433d 493a c43c ed10 f63c 0eb9 153d
00000050: 2f2d 313d 24cd 35bd 9a6b 1a3d 690f fabc
00000060: d9b9 efbc 2df6 b1bb 470a 763c d9af 6fbd
00000070: ef2e c63c cfd9 1bbd 3c3b 863c dafb 843a
00000080: 368d eebc cf68 fb3c d417 b53c ec07 833c
00000090: e915 edba 7128 1abd 17af 98bc 5728 a73c
000000a0: 23c5 25bc 57b3 aabc fc53 243d 7d39 0bbd
000000b0: 5fdf 0c39 f3ff 72bc 331b d13c 3ef2 9fbc
000000c0: ed42 e8bc 0f0c b2bc 6f1e c93b 1ef7 ee3a
000000d0: bc03 223d eaf2 35bd 760e 1c3d 5845 6dbd
000000e0: 0ec6 043d 3ef5 11bd c228 82bc a770 ac3b
000000f0: 9625 eb3c 0bfe f43c 4a67 85bc 3d19 81bb
00000100: 5b9a de3c 5618 573d 2b23 3dbd 8be1 10bd
00000110: eaa1 0ebb 01c3 47bd 6376 773d 545d e5bc
00000120: 5ea9 8a3c f73e fdbc a0d0 b53c cd4a 70bc
00000130: f25c 293d e3d0 113d af37 d93c 9d69 0dbd
00000140: 1db5 d5bc f4f9 ac3c 1506 683d cafe dfbb
00000150: 69bf 193d 98f1 6bbd 35d9 5ebc f6a5 82bb
00000160: e4ec b3ba c74f f13c d110 09bd 635e 563d
00000170: de87 3fbd cc83 70bc e15d ffbc 951f 523d
00000180: 3edd 673c 8408 563d d67a f4bb 778f 00bd
00000190: d654 a13c 7076 5ebd c131 243c 067e 77bd
000001a0: 8f55 85bb 60ab 25bd 6c5e 593d fde3 12bd
000001b0: 0b81 cb3a 887d 6fbd 1997 94bc 7fc6 683c
000001c0: fb99 db3c 8ede 2c3c 95f4 653c bead 753d
000001d0: b81b 5dbd 8859 ce3c 3092 493d d27c d7bc
000001e0: c98b 2c3c a52d a4bc d7c4 31bc 8a6a 7cbd
000001f0: 8c49 b6bc 49ca 0b3d 899e dabc eb3b 3f3d
0.044590153 -0.049875 -0.046010043 0.04333774 0.0068516415 0.051377345 -0.029690845 0.007113042
-0.04854654 -0.038222883 -0.058874376 -0.047029544 0.03650189 0.032411367 0.028957177 0.042208277
0.047632944 0.023953574 0.030037368 0.036553435 0.04325598 -0.04438509 0.037700273 -0.030524926
-0.029263424 -0.005430958 0.015017099 -0.05851731 0.024192302 -0.038049515 0.016385667 0.0010145858
-0.029120069 0.030689625 0.022106089 0.015994988 -0.0018088195 -0.037636224 -0.018638177 0.020404978
-0.010117802 -0.020837469 0.040119156 -0.033990372 0.00013434653 -0.014831531 0.025525665 -0.01952469
-0.028352225 -0.021734266 0.006137661 0.0018231606 0.039554343 -0.044421114 0.03809973 -0.05792746
0.032415442 -0.03563427 -0.015888575 0.0052624526 0.028704446 0.029906293 -0.016284604 -0.003939776
0.027173212 0.052513443 -0.046176117 -0.035371345 -0.0021763989 -0.048769955 0.060415637 -0.027998604
0.016926464 -0.030913813 0.022194207 -0.014666271 0.041348405 0.0355996 0.02651581 -0.03452455
-0.026087338 0.02111528 0.056646425 -0.006835793 0.03753606 -0.05760345 -0.013601591 -0.0039870692
-0.0013727215 0.029456986 -0.033463303 0.052336108 -0.046760432 -0.01467986 -0.031172695 0.05129965
0.014151869 0.052254215 -0.0074609322 -0.03138682 0.019693773 -0.05431217 0.010021628 -0.06042292
-0.0040690373 -0.04044664 0.053068563 -0.035861958 0.0015526129 -0.058469325 -0.018138455 0.014207481
0.026806822 0.010551108 0.014035364 0.059980147 -0.053981513 0.025189176 0.04921168 -0.026304636
0.010531374 -0.020041296 -0.010850153 -0.06162504 -0.022251867 0.03412846 -0.026686924 0.046688

bn1.weight f4 [32]
00000000: 35c8 663f d960 673f f52c 6d3f 5b30 573f
00000010: 37c1 5c3f 7f2d 623f 9bf7 6c3f 467a 8c3f
00000020: d6fa 993f 1d2f 633f b7dc 6b3f cdae 723f
00000030: 9582 873f 3e44 8f3f fa21 813f b942 503f
00000040: f2fa 723f 1d68 833f 1cc0 733f ba73 523f
00000050: 6f3d 703f 0f70 903f cbd9 793f cee2 713f
00000060: 9236 6b3f 49f6 773f af5b 7e3f a0cf 913f
00000070: d41d 8c3f e17c 8a3f a790 753f af65 6c3f
0.9014924 0.9038215 0.92646724 0.8405816 0.8623232 0.8835067 0.92565316 1.0974815
1.2029674 0.88743764 0.9213366 0.94797975 1.0586725 1.1192701 1.0088494 0.8135181
0.9491416 1.0266148 0.9521501 0.82207835 0.9384374 1.1284198 0.9759795 0.944867
0.9188014 0.96860176 0.9935865 1.1391487 1.0946603 1.081936 0.95923847 0.92342657

bn1.bias f4 [32]
00000000: d81b ebbd 791d 18be 1825 6bbd a764 cdbd
00000010: 2b4e a7bd 5f0d fbbd 45a9 24be 287f d73d
00000020: 9cd4 813c bf05 10be 9560 a3bd deb3 19bd
00000030: 5195 593c eeb3 a7bd f8b2 babd 7433 06be
00000040: 3958 283d a20a a4bc 2c56 92bc cb31 47be
00000050: ea31 7dbd ca1b cfbd e474 dc3b fc51 b4bd
00000060: 2eb7 32bd 10b0 5439 30f3 71bd 4b6c 07be
00000070: 169a a7bc 1c02 febd 939e 5fbd fe25 00be
-0.1147992 -0.14854993 -0.057408422 -0.100289635 -0.08169206 -0.1225841 -0.16080196 0.105223
0.01584845 -0.14064692 -0.07977406 -0.03752505 0.013280229 -0.08188616 -0.09116167 -0.13105565
0.04109976 -0.020024601 -0.017863356 -0.19452588 -0.06181518 -0.10112722 0.0067278016 -0.088047
-0.043631725 0.00020283484 -0.059069812 -0.13224904 -0.020459216 -0.12402746 -0.054594588 -0.12514493

bn1.running_mean f4 [32]
00000000: 0d2b 47bf defe 173f 679c 2d3e 86d8 e9bd
00000010: ebf7 03bf 3e3a 523d 2946 93bd fb15 cd3d
00000020: 9868 65be d984 d9be f442 973e 347e b23c
00000030: 6ebf 47be 3a01 813e 06e8 e73d 64ce 3f3e
00000040: c05b 2abe 1233 b53e ba7e ae3e 32e7 9ebe
00000050: c3a9 3a3e c379 92bc 8bc3 703e 21f2 db3e
00000060: 785d 39bd e284 d63d 16d3 43bd fd06 bebd
00000070: 3e3f bf3d f3eb d0bd d3a8 ff3e c950 5c3f
-0.77800065 0.5937327 0.16954194 -0.11418252 -0.5155017 0.051325075 -0.07191116 0.10013958
-0.2240318 -0.42484167 0.2954327 0.021788694 -0.19506618 0.25196248 0.11323552 0.18731076
-0.16636562 0.35390526 0.3408106 -0.31035763 0.18228821 -0.017880326 0.23512094 0.42958167
-0.045255154 0.10474564 -0.04780873 -0.09278677 0.09338234 -0.10201254 0.4993349 0.8606077

bn1.running_var f4 [32]
00000000: bc2b 2a3d dc9e 143d 050f 8d3c 8072 973c
00000010: b86e b03c 0b3e af3b 02a1 da3b ad8b 833a
00000020: 4c41 5f3a 4414 9e3b fc5a d53a 0636 7e3b
00000030: 0159 d53a faaf 213b 5fec ec3a 20a3 1f3b
00000040: f6e7 4b3a 2a57 8a3b a998 163c 1bef 5c3c
00000050: af65 273c 2dff e83a 7089 763a 571d 333d
00000060: e4cf cf3b eaee 433b e2dd 1f3b f412 d63a
00000070: 4d2f e83a 7277 7e3a 3988 793c 4b8a 473d
0.041545615 0.036284313 0.017219076 0.018487215 0.02153717 0.0053479723 0.0066720257 0.0010036133
0.0008516505 0.004824193 0.0016277726 0.0038789525 0.0016277136 0.002467154 0.0018075815 0.0024358705
0.00077784003 0.0042218165 0.00919167 0.013484742 0.010217114 0.0017776244 0.0009404635 0.043729153
0.006341921 0.0029897043 0.0024393727 0.0016332553 0.0017714292 0.000970713 0.015230232 0.04871587

bn2.weight f4 [64]
00000000: 18d5 673f 9988 693f 6338 af3f 5acd 5f3f
00000010: 33a9 623f 8e6f 7e3f 37a6 793f 03ad 7c3f
00000020: 452f 623f 3bd7 753f e171 6c3f bbf3 783f
00000030: 6c33 7f3f 8245 683f 209b 563f 77e5 673f
00000040: 5262 7b3f ba6c 673f fe9e 843f 7315 753f
00000050: 419d 7f3f 2402 633f a33a 8f3f 517f 663f
00000060: 10e0 8c3f 82aa 6a3f 65bc 8e3f ad5e 7d3f
00000070: b0b8 623f 2ff7 7b3f d538 783f acaf 8b3f
00000080: 024b 6f3f e596 a13f 62e0 693f 7b14 713f
00000090: 9bf0 633f e852 943f 5aa7 793f 00b9 653f
000000a0: 8963 8b3f 4087 723f f067 693f 6411 5e3f
000000b0: a3bc 7c3f 59ef 633f 5487 7a3f c1a4 623f
000000c0: 2950 813f f724 7b3f c148 873f 5aa4 873f
000000d0: 642e 663f 08cc 6d3f 2cca 713f d4b6 7b3f
000000e0: 1dd4 913f 7d65 803f e870 753f b4ae 583f
000000f0: 9ae5 5e3f 6a75 703f b8a1 623f e58d 863f
0.9055953 0.91224056 1.3689083 0.87422717 0.8853943 0.9938897 0.9751925 0.98701495
0.8835338 0.9603154 0.92361265 0.97246903 0.9968784 0.9073106 0.8383045 0.9058451
0.981969 0.9040028 1.036102 0.95735854 0.99849325 0.8867514 1.118977 0.9003802
1.1005878 0.91666424 1.1151243 0.9897259 0.8856306 0.9842405 0.9696172 1.0912986
0.9347383 1.2624174 0.91358006 0.94171876 0.8903901 1.1587801 0.97520983 0.8973541
1.0889751 0.94737625 0.9117422 0.86745286 0.98725337 0.8903709 0.97862744 0.88532645
1.0102588 0.9810328 1.0569078 1.0597031 0.89914536 0.9288945 0.94449115 0.9832585
1.1392857 1.0030972 0.95875406 0.84641576 0.87069094 0.9392916 0.88528013 1.0512053

bn2.bias f4 [64]
00000000: a90c a5bc c6d2 73bd c416 723d 34da eabd
00000010: e188 8cbd 6ec8 a6bd 44a3 edbd f4bd ec3c
00000020: 7aaf 8fbd 663a 3bbd 434b 8ebd 6c20 b9bd
00000030: 781b 01bd 5cb3 10bd 2220 f5ba c303 d53b
00000040: 2e2d 2cbd 8adb c1bd 4c8d d5bc 789a d8bd
00000050: 5adf 5bbd 523d 75bd e927 a6bd 6863 9dbd
00000060: 23cd 073d 4598 1cbd 533a a7bd 6688 32bd
00000070: 05a0 9abd f8ef bcbd c701 a33a a3ce ba3d
00000080: d478 fc3b 407b 2dbc ae7a b7bd 9dc8 17bd
00000090: 1eaf 66bc 53d1 ec3c a5bb 92bd 2621 02be
000000a0: a626 1e3c 1443 88bd d1d9 8fbd 6f57 08be
000000b0: 6caf e9bd ce47 9cbd 05ad ce3c 0a36 01bc
000000c0: 0e78 babc 6f70 5ebd 4d97 c4bc 6a5c 29bd
000000d0: 6720 68bd a492 16bd 90ca 08be f0a0 203d
000000e0: 7cbd c23d cf4b 05bd a330 143d b4cb adbd
000000f0: c232 11bd 26b5 d0bd 5292 eebd 382d 79bd
-0.020147638 -0.05952718 0.059103742 -0.114674 -0.06862045 -0.08143698 -0.11603406 0.02889917
-0.070158914 -0.04570999 -0.06947949 -0.09039387 -0.031520337 -0.0353273 -0.0018701593 0.0065006926
-0.042035274 -0.09465702 -0.026068352 -0.105763376 -0.0536798 -0.059872933 -0.08113081 -0.07684976
0.033154618 -0.038231153 -0.08165421 -0.04358711 -0.075500526 -0.09225458 0.0012436443 0.09121444
0.0077048335 -0.010588467 -0.08958946 -0.037056554 -0.014079837 0.028908407 -0.071646966 -0.12707958
0.009652769 -0.06653419 -0.07023967 -0.13314603 -0.11410412 -0.07630883 0.025228987 -0.007886419
-0.022762325 -0.054306444 -0.023997927 -0.0413479 -0.056671526 -0.03676094 -0.13358521 0.039215982
0.095087975 -0.032543 0.036179196 -0.08486119 -0.035448797 -0.10190801 -0.11649002 -0.06083414

bn2.running_mean f4 [64]
00000000: c073 cfbe 92dc 23c0 4268 98bf 4558 81bf
00000010: 8130 0440 a1b9 89bf f462 0a3d e1b9 fcbf
00000020: eed1 eb3f 3dc0 8b3f 4f76 21c0 decd ddbe
00000030: a564 6cbf 4200 a5bf dec1 34c0 56a6 67bd
00000040: b9a0 3d3f f41f 3cbf 5721 99bf b58b 303f
00000050: 44e5 31bf 747f 0840 8ad3 2e3f 8535 033f
00000060: 07bf fbbf 289c 383d 3463 183d 424e 383f
00000070: e5fd 9b3f 27c2 a83f b460 6340 d3c8 69bf
00000080: 0568 41bf 539c a1bf da2d 56c0 dfed 2ac0
00000090: 005a 513f 8ba5 e5be a2a0 be3f bc97 4a40
000000a0: a807 60c0 bdb8 a23f 534d c3be 4a23 88bf
000000b0: 67d1 71be 1ac7 0440 2f25 20c0 1357 97c0
000000c0: acce a7bf 231e 03bf c290 b1bd 6236 d3bd
000000d0: b1ac 54c0 e883 7bc0 d28d 5fbf 5425 b63f
000000e0: a3e8 cb3e f3d8 76be e62d 83bf 9107 61c0
000000f0: fca6 6fc0 cf6c 31c0 c4ad 2c3f 63e6 edbf
-0.40517998 -2.5603375 -1.1906817 -1.0105063 2.0654604 -1.0759774 0.033785775 -1.9744226
1.842344 1.0918041 -2.522846 -0.43321127 -0.9234107 -1.2890704 -2.8243327 -0.056555115
0.7407337 -0.73486257 -1.19633 0.68963176 -0.69490457 2.1327791 0.68291533 0.5125354
-1.9667672 0.045070797 0.037203982 0.7199441 1.2186857 1.318425 3.5527773 -0.9132206
-0.75549346 -1.2625831 -3.3465486 -2.6707685 0.81777954 -0.44852862 1.4892771 3.1655111
-3.5004673 1.2712628 -0.3814493 -1.0635769 -0.23615037 2.0746522 -2.5022695 -4.729379
-1.3109946 -0.5121786 -0.086701885 -0.10313107 -3.3230402 -3.929926 -0.87325776 1.4230142
0.39825925 -0.24106197 -1.0248382 -3.5160868 -3.744567 -2.7722661 0.67452645 -1.8585933

bn2.running_var f4 [64]
00000000: 121b 4e40 3933 ca40 1e9f e03f 1cae bd40
00000010: 4f92 db40 f13e 4840 eb44 ee3f 21c7 5b40
00000020: b512 8440 77a8 7440 2e5d 3740 96d8 7e40
00000030: ce1f 3640 ef26 0840 2672 6340 07c7 b140
00000040: 8bfe cb3f 3cf7 b840 a309 e43f 7bd6 9740
00000050: f6f6 1e40 7f4d f140 ff1c 0040 b786 ab40
00000060: 42a9 d63f ae2a 6940 e966 ea3f e0dc 9440
00000070: 2eec 3e40 f99b 6440 0d8e 8d40 39f5 9d3f
00000080: 85b3 fc3f fbc9 a43f ab8f 6940 7233 6d40
00000090: b888 b340 bb94 863f abb7 2140 717f 0d41
000000a0: c184 2240 925d 9540 4ebe 4d40 4897 8e40
000000b0: 7597 8940 8afa be40 dd43 2140 e069 9640
000000c0: 22ab 4d40 6979 4540 3fc5 ed3f 3ace 1840
000000d0: 1532 8940 9147 e240 e148 6c40 da9f 7b40
000000e0: 62c1 3840 4016 b13f d584 cc3f 1230 2440
000000f0: 6a02 8a40 09b0 7c40 8066 8c40 8e69 3340
3.2204022 6.318753 1.7548559 5.9275036 6.86161 3.1288416 1.8614782 3.4340289
4.1272836 3.8227823 2.8650622 3.9819694 2.8456912 2.1273763 3.553842 5.5555453
1.5937055 5.78018 1.7815441 4.7449317 2.4838233 7.54071 2.0017698 5.3601947
1.6770403 3.64323 1.8312656 4.6519623 2.9831653 3.5720198 4.42359 1.2340461
1.9742285 1.287414 3.6493938 3.706265 5.6104393 1.0514139 2.5268352 8.843614
2.5393527 4.667672 3.2147403 4.455967 4.2997384 5.9680834 2.519767 4.700424
3.21357 3.0855353 1.857582 2.387587 4.2873635 7.071236 3.6919482 3.9316316
2.8868032 1.3834915 1.5978037 2.565434 4.3127947 3.9482443 4.387512 2.8033175

bn3.weight f4 [128]
00000000: 32f2 853f 32b6 763f ff31 863f 11e6 823f
00000010: 65f3 803f f203 8d3f f3be 703f 6f50 793f
00000020: c37e 803f e02d 733f ad1d 773f 387b 753f
00000030: 256c 683f f598 843f ea23 7f3f ba7c 873f
00000040: eeec 7c3f 7644 6d3f 4e2b 933f b2bb 7a3f
00000050: 1771 783f 4ab0 743f 718d 753f 8cd9 823f
00000060: cb1c 813f e4fa 823f e124 703f 3824 793f
00000070: 3b58 703f c999 713f efbc 843f f021 6f3f
00000080: 4661 803f dd5a 6e3f 4666 863f b400 713f
00000090: 35c6 7c3f e08b 833f be96 8f3f 7886 873f
000000a0: 4a93 883f 8f52 713f e1cb 663f 7c0e 8e3f
000000b0: adc2 813f ebe8 793f 675a 873f b172 763f
000000c0: 7acc 763f 2e4b 703f bd28 6f3f 155f 803f
000000d0: e98f 813f 61a2 713f f7b5 763f 56c3 803f
000000e0: 8255 853f fd74 843f 9209 783f 1179 823f
000000f0: 1e33 813f 80fa 7b3f f4cb 923f 38da 723f
00000100: c85d 7d3f b132 783f d76c 873f c3ec 743f
00000110: 5bcb 873f 42bc 743f c4fe 763f 1ef9 6e3f
00000120: a8a9 763f 622e 8e3f 8129 8a3f cef5 743f
00000130: ac5a 833f 78c5 953f bb35 7d3f 1e1e 7c3f
00000140: a3da 833f 64c0 923f 5777 7d3f 5721 793f
00000150: ab2d 8e3f 77fa 853f c615 7e3f ec1d 873f
00000160: c4cf 953f 2eb4 8c3f feb9 823f a008 713f
00000170: de52 963f c805 873f 511f 8e3f ab4a 8b3f
00000180: 06df 753f 6fe6 7e3f 4431 863f ba97 803f
00000190: f9b2 753f 4884 8d3f f41c 823f 8f3f 7e3f
000001a0: 6f41 813f 4b95 7f3f 66d3 843f 8434 803f
000001b0: 9b7c 7b3f 3480 763f 0a9a 843f 00a6 8a3f
000001c0: a9ad 853f 4069 853f 8473 783f 4355 803f
000001d0: 98ef 803f cd1e 7d3f 49a8 863f 8866 7f3f
000001e0: 76d1 793f 6493 7d3f adbd 763f 26f6 863f
000001f0: f27a 783f f385 7d3f 59cf 843f 9d12 8b3f
1.0464537 0.9637176 1.0484008 1.0226461 1.0074278 1.1016829 0.94041365 0.97388357
1.0038685 0.94991875 0.96529657 0.9589114 0.90790015 1.0359179 0.99664176 1.0584939
0.98799026 0.9268259 1.149759 0.9794265 0.9704756 0.95581496 0.9591895 1.022264
1.0086912 1.0232816 0.9380627 0.9732089 0.9388463 0.9437528 1.0370158 0.9341116
1.0029685 0.93107396 1.0499961 0.941417 0.9873994 1.0277061 1.1217878 1.0587912
1.0669949 0.942666 0.90154845 1.109817 1.0137535 0.9762103 1.0574464 0.96268755
0.96405756 0.93864715 0.93421537 1.0029017 1.0122043 0.94388396 0.96371406 1.0059612
1.041672 1.0348202 0.96889603 1.0193197 1.0093725 0.9842911 1.1468492 0.94864225
0.98971224 0.9695235 1.058009 0.9567377 1.0608934 0.9559976 0.9648249 0.9334887
0.96352625 1.1107905 1.0793916 0.9568757 1.0262046 1.1700888 0.9891011 0.98483455
1.0301098 1.1464963 0.99010223 0.973165 1.1107687 1.0467061 0.99251974 1.0556006
1.170403 1.0992486 1.021301 0.94153786 1.1744039 1.0548639 1.1103307 1.0882162
0.9604343 0.99570364 1.0483785 1.0046303 0.95976216 1.1055994 1.0165086 0.9931573
1.0098094 0.9983718 1.0377014 1.0016026 0.9823701 0.9628937 1.0359509 1.0831909
1.0443622 1.0422745 0.9705126 1.002602 1.0073118 0.98875123 1.0520107 0.99765825
0.9758524 0.99053025 0.9638317 1.0543869 0.970626 0.99032515 1.0375777 1.0865055

bn3.bias f4 [128]
00000000: 5585 05bd f6a7 88bd 9414 60bd 48b2 91bd
00000010: d74d 87bd 4c71 76bc 5ea8 a5bd 2034 5ebd
00000020: 411f 85bd 5dcd 77bd 5229 b8bd aae4 98bd
00000030: be8a f3bd aadc 1dbc 8f84 6dbd 4ec4 89bc
00000040: eb82 05bd ca09 babd 8173 c7bc 3592 37bd
00000050: b4ea 20bd 2756 91bd ab0a b2bd e1a1 33bd
00000060: b556 92bd d4c8 3abd ab00 b0bd fc3d 47bd
00000070: d360 dfbd 6644 abbd f34d 02bd 3fa2 a2bd
00000080: 0711 68bd 191f 0abe 88c8 08bd ba62 04be
00000090: 8de6 dabc 4e5e 3bbd 3881 f83b 08f3 fdbb
000000a0: 1bfd 2abd 886e c3bd 56f3 b8bd 17b5 f7bc
000000b0: 2d13 24bd 231d 9ebd 7114 f2bc 18c9 b9bd
000000c0: ef12 84bd c856 3abd 5696 13be c7b3 ecbb
000000d0: 7ad6 49bd a7d3 a8bd 0599 78bd 837f 25bd
000000e0: 721c 40bd f645 3fbd 9a99 9abd fce5 c9bc
000000f0: ada8 b1bd 7d54 6fbd 5912 26bd 8499 88bd
00000100: 5d7d f1bc 9af3 b0bd 29e7 08bd 41af 81bd
00000110: 4773 5bbd a086 8ebd cc2b 2dbd 28d9 f9bd
00000120: 8563 2bbd 28dd 89bb 5122 17bd f193 9fbd
00000130: d335 30bd 4a93 813b e8a3 5dbd 73ed d2bd
00000140: 2c57 12bd 4fdf edbc 5d45 d5bd 9b1d 22bd
00000150: 025e bfbc 2f02 a13b 04b0 66bd 3e0a 2fbc
00000160: 2e4c de3c 2d71 11bd ea24 14bc 205e 91bd
00000170: 4228 e3bc 969b 91bc 25f2 dabc edb9 94bc
00000180: 16db a0bd 2bed bcbd 38b5 abbc 5a62 71bd
00000190: a55e 97bd 814f 8d3b 23bb 2ebd 5781 bfbd
000001a0: 5dd0 e2bc a873 49bd d585 00bd b9c0 ceba
000001b0: 30ac 51bd a888 8fbd f9d4 95bc 0a38 4cbd
000001c0: 40ae 00bd a4e4 c8bc a7af 2dbd 8716 1fbd
000001d0: f059 67bd c6d0 96bd 689e 0bbd a536 41bd
000001e0: 832a 7ebc 7366 88bd b998 4fbd 759d 34bd
000001f0: 92b7 8cbd dd25 6bbd e934 72bc 26fa 923c
-0.03259786 -0.06672661 -0.054707125 -0.071140826 -0.06606644 -0.0150416605 -0.08088754 -0.05424893
-0.06500102 -0.060498584 -0.08992256 -0.07465489 -0.11891697 -0.00963513 -0.057987746 -0.016817238
-0.032595556 -0.09083898 -0.024347069 -0.04481717 -0.03928633 -0.070965104 -0.08693441 -0.04385555
-0.07145444 -0.04560168 -0.085938774 -0.048643097 -0.1090714 -0.08362655 -0.03181262 -0.07941102
-0.056656864 -0.13488425 -0.033394367 -0.12928286 -0.026721263 -0.045744233 0.0075837635 -0.007749919
-0.041745286 -0.095425665 -0.09030788 -0.030237718 -0.04005735 -0.07720401 -0.029550763 -0.09071559
-0.06448924 -0.045492917 -0.14412817 -0.0072235796 -0.049276806 -0.082434945 -0.060692806 -0.040404808
-0.046902128 -0.04669758 -0.075488284 -0.024645798 -0.086747505 -0.058430184 -0.04054484 -0.06669906
-0.029478723 -0.08640213 -0.033423577 -0.06332255 -0.053576734 -0.069592714 -0.042278096 -0.121996224
-0.041842956 -0.004207272 -0.03689796 -0.077918895 -0.04302008 0.003954326 -0.05411139 -0.10299196
-0.035727665 -0.029037146 -0.104136206 -0.039579015 -0.023360256 0.0049135904 -0.056320205 -0.010683594
0.027135935 -0.035508323 -0.009042004 -0.07098031 -0.027729157 -0.017774384 -0.026726792 -0.018155063
-0.07854287 -0.09224924 -0.020960435 -0.058931686 -0.07391099 0.004312456 -0.042658936 -0.093508415
-0.027687246 -0.049182564 -0.031377632 -0.0015773989 -0.0511896 -0.07008487 -0.01829003 -0.04985813
-0.031416178 -0.024523087 -0.042403843 -0.038839843 -0.056482255 -0.07364039 -0.034086615 -0.047171254
-0.015513065 -0.06660166 -0.050682757 -0.044095475 -0.06870951 -0.057409156 -0.014783123 0.017941546

bn3.running_mean f4 [128]
00000000: 21ff 8dc0 28f0 87bf 865b 4bc0 87b6 2ac0
00000010: c8fe 3e40 9c62 6ac0 e5f2 283f 2362 26c0
00000020: 17f0 1fc0 f376 69bf c82e 3dc0 642a 77bf
00000030: 8b09 77bf e826 37c0 a933 8ec0 cf74 4dc0
00000040: 5f10 a4c0 5edd 95bf 76b8 a6bf 0ea8 e2bf
00000050: 7b46 0ec0 c716 e5bf 627a 98bf 0a19 6dc0
00000060: fb59 27c0 9c69 8ac0 9f68 10bf d633 06bd
00000070: bce6 bfbf e55d d7be 8129 10c0 5c64 f03f
00000080: 4e17 a4c0 3ff0 39bf 8175 cdbf bbfc a6bf
00000090: af9a b3bf 49cd 7abe 77a3 8fc0 fc8b 20c0
000000a0: 77b8 91c0 8171 98bf 181b 2d3f 1350 3fc0
000000b0: 8c28 f4bf 670b 043f ea48 73c0 6687 12be
000000c0: b668 a5bf 65e6 42c0 94fe e23e 0bfa 0cbf
000000d0: ff52 ebbf a4be 0ec0 c965 41c0 f50c 6abf
000000e0: 8d13 85c0 ed71 54c0 0c9f 04c0 188d 2fbf
000000f0: 0ef8 7e40 eeab 21c0 7a33 1fc0 89c9 76c0
00000100: bcb8 fcbe a256 a7be 0a13 15c0 be4f 4dbe
00000110: 22ef d9bf 615a 2dc0 3015 5dc0 b15d 98bf
00000120: f2f8 dcbf 9287 4bc0 a021 36c0 0277 ba3f
00000130: bd14 a6c0 8f44 b1bf bab6 1bc0 cad7 9a3e
00000140: 17b3 9cc0 2b62 0ec0 5130 4dc0 65bb b9bf
00000150: a02d e7bf 1b55 6fc0 d1fa 74c0 fdd5 21c0
00000160: 3498 28c0 94b3 44c0 9eb6 2ec0 1812 1dc0
00000170: 37da dbbf 5d71 44c0 f20b 44c0 57db 66c0
00000180: 5b51 dd3e 058f c6bf ed33 8bc0 36c4 0dc0
00000190: be50 73bf cf1c 2ec0 94b5 85c0 ced7 903f
000001a0: cad8 60bf c763 67be 843f 19c0 f17e 60c0
000001b0: 2fdf 7dbf e761 5ebf 1dc4 b6c0 80be 3ec0
000001c0: 4282 43c0 ff36 d1bf 1e66 a5be 381c 18c0
000001d0: 9004 85c0 cc4e 3bbf 1d6e 24bf 97d6 2bc0
000001e0: 078d 27c0 d71c 03c0 8d93 cfbf 860c 10c0
000001f0: dc88 4ebf 4e1a 4cbf 734c cfbe 4da1 32c0
-4.4373937 -1.0620165 -3.1774611 -2.6673906 2.9843006 -3.6622686 0.6599563 -2.5997398
-2.499029 -0.9119713 -2.9559803 -0.9654906 -0.96498936 -2.8617496 -4.443806 -3.2102544
-5.1269984 -1.1708181 -1.3025043 -1.7707536 -2.2230518 -1.7897576 -1.1912348 -3.7046533
-2.614867 -4.325392 -0.5640964 -0.03276428 -1.499229 -0.42063823 -2.2525332 1.8780627
-5.127845 -0.7263221 -1.6051484 -1.3045877 -1.4031581 -0.24492373 -4.488704 -2.508544
-4.5537677 -1.1909639 0.67619467 -2.9892623 -1.9074874 0.515799 -3.8013253 -0.14309463
-1.292258 -3.0453122 0.44334853 -0.55069035 -1.8384703 -2.2303858 -3.0218375 -0.9142602
-4.1586366 -3.3194535 -2.0722075 -0.68574667 3.98389 -2.5261188 -2.4875169 -3.8560507
-0.4935969 -0.32683283 -2.329287 -0.2004995 -1.7026103 -2.7086413 -3.4544182 -1.1903592
-1.7263472 -3.1801496 -2.8458023 1.4567568 -5.1900315 -1.3849047 -2.4330277 0.3024276
-4.8968616 -2.2247417 -3.206074 -1.4510313 -1.8060799 -3.7395694 -3.8278086 -2.5286858
-2.6342897 -3.0734606 -2.729896 -2.4542294 -1.7175969 -3.0694191 -3.063229 -3.6071374
0.43226132 -1.5512396 -4.3500886 -2.2151008 -0.9504508 -2.7205083 -4.1784153 1.1315858
-0.87830794 -0.22596656 -2.3945017 -3.507748 -0.99168676 -0.8686814 -5.7114396 -2.9803772
-3.0548253 -1.6344908 -0.32304472 -2.3767223 -4.156807 -0.7316711 -0.6423052 -2.6849725
-2.6179826 -2.0486352 -1.6216904 -2.2507644 -0.8067758 -0.7972764 -0.40488014 -2.791095

bn3.running_var f4 [128]
00000000: 8e75 d43f 8ca5 ed3f 529c 1940 1e5d a13f
00000010: 953e 6c3f bd24 b13f 022f 0940 5c69 0440
00000020: d44c b03f 2724 f23f a1c7 2440 e22d f83f
00000030: 1302 f03f 7bdc 0b40 57be 2740 297f 983f
00000040: b1ac 4840 dcdc 0c40 8d6b 713f 94eb cd3f
00000050: 8577 2d40 62c2 1440 2de3 0840 5451 b03f
00000060: bf29 0d40 d143 bc3f 4cb3 c33f 9c43 0740
00000070: 878a f23f 4ab7 d63f 12d1 b83f f3af b73f
00000080: c29c 1040 2e8a be3f ff72 ca3f ee7d 1240
00000090: 8062 e53f e653 873f 4b32 c23f 1c76 d73f
000000a0: 9a77 0e40 0480 e83f f5aa be3f 7912 bd3f
000000b0: eac2 f33f f776 d23f 043d f53f 4450 a83f
000000c0: ccc2 fd3f e65c 0840 7d89 e13f 789a c33f
000000d0: c705 d03f 0961 0340 6d33 dc3f 37bd d53f
000000e0: f0d7 3140 97ad 0340 9597 0d40 c90f c03f
000000f0: dd65 913f 49d5 1040 42e4 9c3f 780d 3140
00000100: 4641 1c40 113b 0040 699f c53f 2f8c b23f
00000110: 0e43 c33f a6ac e73f 9954 0f40 2967 ca3f
00000120: 86ab 0b40 bb02 ec3f d4a8 cd3f f9c8 0840
00000130: abd4 1c40 4784 bc3f 62a2 1f40 bac8 e73f
00000140: a16d 5440 52db 913f bb99 1e40 1971 0040
00000150: 9d27 933f a536 2b40 11cd d33f fa1c 9e3f
00000160: e487 8b3f 62c7 ad3f aeb4 1640 9dad ed3f
00000170: a274 493f 30fc f63f d88a a93f 06dc 9d3f
00000180: 6128 2140 2301 1a40 35de e73f 6cc7 c13f
00000190: 23d5 d93f 1951 893f 6e58 0440 f943 be3f
000001a0: 7b81 a83f e138 e23f c7bd 0440 18b8 b83f
000001b0: edb3 c23f f88e ec3f 3eb0 4040 5a1c 6a3f
000001c0: b863 d53f df77 2640 c243 2b40 5997 1840
000001d0: 7a59 1640 28d3 2240 6918 f03f 5580 df3f
000001e0: 8b15 dc3f 3199 0f40 5d30 d63f c728 b43f
000001f0: 4943 d63f 71ff f43f ea68 ff3f 5d37 8e3f
1.6598375 1.8566146 2.400166 1.2606542 0.9228299 1.3839337 2.1434941 2.0689306
1.3773446 1.8917283 2.5746844 1.9389002 1.8750633 2.185332 2.6209924 1.1913806
3.1355402 2.2009802 0.94304734 1.6087518 2.71042 2.3243642 2.1388657 1.3774819
2.205673 1.4708196 1.5289092 2.1135015 1.8948525 1.6774685 1.4438803 1.435057
2.2595677 1.4885919 1.5816344 2.2889361 1.7920685 1.0572479 1.5171598 1.6832919
2.22605 1.8164067 1.4895922 1.4771262 1.9043858 1.6442555 1.9159245 1.3149495
1.9825072 2.13067 1.7620083 1.5281515 1.6251763 2.0527976 1.7203194 1.6698369
2.7788048 2.05747 2.2123768 1.5004817 1.1359211 2.263018 1.2257159 2.766447
2.441484 2.0036051 1.5439273 1.3949031 1.5254838 1.8099563 2.2395384 1.5812732
2.182344 1.8438333 1.6067147 2.1372664 2.4504802 1.4727868 2.494286 1.8108132
3.3191912 1.1395056 2.478133 2.006903 1.1496464 2.6752102 1.6546956 1.2352593
1.0900846 1.3576472 2.3547778 1.8568608 0.7869359 1.9295712 1.3245497 1.2332771
2.5180895 2.4063194 1.8114687 1.5138984 1.7018169 1.0727874 2.0678973 1.4864494
1.3164514 1.7673608 2.074083 1.4431181 1.5211159 1.8481131 3.010757 0.9144951
1.6671057 2.6010664 2.6760106 2.3842375 2.3492112 2.544138 1.8757449 1.7461039
1.7194074 2.243725 1.6733509 1.4074944 1.6739284 1.9140455 1.9953892 1.1110646
